knowledgeGraph/gcn.pth (torch, 94192 bytes, 4 tensors)

conv1.bias f4 [16]
0.15551287 0.33772597 0.06957391 0.3570526 0.2635592 0.25871605 0.25126755 0.46445182
0.17802453 0.34589756 0.15298292 0.32566977 0.14624187 0.2579956 0.2029383 0.15813267
00000000: c43e 1f3e 6bea ac3e c47c 8e3d 99cf b63e
00000010: 3bf1 863e 6e76 843e 24a6 803e a1cc ed3e
00000020: 104c 363e 7c19 b13e 8ea7 1c3e 30be a63e
00000030: 6ec0 153e 0018 843e 0fcf 4f3e 88ed 213e

conv1.lin.weight f4 [16, 1433]
0.0028976789 -0.00023806322 0.014106298 -0.05581947 0.44966248 -0.08185031 0.02627361 -0.02065483
0.032521132 0.002514631 0.0015564964 -0.0010561792 0.22981061 -0.115883924 -0.0011367234 0.088184185
-0.025262209 -0.05110862 0.013924686 -0.13998334 -1.8156636e-07 0.045855395 0.010499471 0.019115265
0.0065671154 0.12494289 0.31271172 0.11179179 0.10214798 0.012021138 -0.00023847185 0.0023317533
-0.007476829 0.00094252767 -0.05508976 0.09042604 0.04346725 -0.0077966675 -0.033170145 -0.031221626
0.12523916 0.11574815 -0.016103402 0.0067495415 0.037953828 -0.07513071 -0.0025352587 -0.030718582
0.06557535 -0.0037821215 -0.06359293 0.3382472 0.16214116 -0.0028051415 -0.050853405 0.0060637654
0.027117457 -0.025075993 -0.018136391 -0.045165483 1.8130673e-07 -0.11246285 0.0014762846 0.15085354
0.115015514 0.0072058225 -0.087488 -0.032546878 0.01977086 -0.054753073 -0.04081824 0.02305444
-0.0014051205 -0.0014972289 -0.046018984 -0.04386034 -0.0024857342 0.14323108 0.07346104 0.020052329
-0.024628833 -0.013882337 0.055502716 -0.003635274 0.01794217 -0.06605351 -0.12440213 -0.036888313
-0.017991796 0.050389994 0.0017682223 -0.01640955 0.046961352 0.24533325 -0.07092522 0.027201876
0.108054824 -0.09013619 0.097487025 -0.076225325 0.013157105 -0.013037313 0.1089172 -0.098387435
0.08947915 -0.021311402 -0.0053238696 -0.01659464 -0.13374503 -0.022685833 -0.00067394355 -0.011491301
-0.032902054 -0.0017142261 -0.042322837 -0.016024034 -0.08686026 -0.021274582 0.060949136 0.027759429
-0.028764034 0.02197689 0.03276175 -0.0245708 -0.049151022 0.150126 -0.10747224 0.04643756
-0.030176692 0.014825475 -0.12869327 0.08387466 -0.0067369374 0.031658374 -0.060500845 -0.011740784
-0.07082667 -0.00546402 -0.013296116 -0.08418979 -0.0687842 -0.017876545 -0.029795298 -0.062879756
-0.0050693965 6.2318406e-08 0.081925005 -0.03903789 -0.055693533 -0.13951322 0.061414618 0.14524023
0.013128179 0.08086055 0.02710221 0.029621882 -0.05774588 -0.043672107 -0.011649782 -0.011650156
-0.06068435 0.057766534 0.01399185 -0.031303883 -0.02484166 0.0047496636 -0.05927136 -0.041727334
-0.08119188 -0.005073885 0.04839454 0.0071564796 0.05581955 -0.057794206 -0.10759217 -0.017959977
-0.0903684 0.046180222 -0.018007496 0.09975377 0.01113663 -0.011348323 -0.022696683 -0.007507022
-0.010466966 -0.0017143607 0.065396674 0.02455495 -0.06299366 0.09221015 -0.022675239 -0.0428346
0.059114102 -0.006263667 -0.06107355 -0.022806533 0.00051897037 0.080591574 -0.000400241 -0.0059400843
0.00056091556 0.007994861 -0.010244949 -0.04542766 0.020535449 0.26989746 0.0024538052 -0.09431534
-0.11909949 -0.015392183 0.024865143 0.1544959 -0.0782973 -0.048401263 0.0694893 0.048442543
-0.012122947 -0.066733934 -0.08791993 0.042049132 0.015694506 0.020143371 0.022350628 -0.014719061
0.042886615 -0.12557675 0.08972919 -0.0049883565 0.120022535 0.007822406 -0.042538326 0.004306051
0.05151319 0.10432633 0.140353 -0.040039264 0.034244817 0.044597443 0.029715486 -0.020025814
-0.013761542 0.0065447916 -0.04115543 -0.014214808 0.05200817 0.022527441 -0.022456096 0.08178196
-0.0559858 -0.07378775 -0.057517387 -0.077947065 0.0113080945 0.031937726 -0.014700597 0.05620386
00000000: fce6 3d3b 9ca0 79b9 1a1e 673c f5a2 64bd
00000010: 293a e63e 23a1 a7bd c13b d73c 5134 a9bc
00000020: e134 053d 82cc 243b 5a03 cc3a 7e6f 8aba
00000030: 7953 6b3e 8d54 edbd 1cfe 94ba e999 b43d
00000040: b1f2 cebc 4657 51bd 5e24 643c cb57 0fbe
00000050: 95f4 42b4 ded2 3b3d f905 2c3c 9e97 9c3c
00000060: f530 d73b 0fe2 ff3d c01b a03e 18f3 e43d
00000070: f632 d13d 4ff4 443c 4d0e 7ab9 54d0 183b
00000080: 3000 f5bb f613 773a cda5 61bd 4a31 b93d
00000090: b70a 323d 307b ffbb 6bdd 07bd 7fc4 ffbc
000000a0: b23e 003e 5e0d ed3d 48eb 83bc 422b dd3b
000000b0: 7975 1b3d 21de 99bd 9526 26bb 89a5 fbbc
000000c0: 5e4c 863d 78dd 77bb 033d 82bd bd2e ad3e
000000d0: 5508 263e 77d6 37bb a94b 50bd 8db2 c63b
000000e0: 6e25 de3c 2b6c cdbc c592 94bc 71ff 38bd
000000f0: 37ad 4234 ec52 e6bd e47f c13a 5a79 1a3e
00000100: 418d eb3d d21e ec3b e92c b3bd e04f 05bd
00000110: 80f6 a13c c244 60bd 0731 27bd aadc bc3c
00000120: 052c b8ba aa3e c4ba 677e 3cbd e6a6 33bd
00000130: b3e7 22bb 2bab 123e be72 963d c844 a43c
00000140: 68c2 c9bc be72 63bc d156 633d c73d 6ebb
00000150: 75fb 923c 1047 87bd 8bc6 febd 3318 17bd
00000160: 8863 93bc bd65 4e3d b2c3 e73a 526d 86bc
00000170: 8c5a 403d a438 7b3e 3e41 91bd 78d6 de3c
00000180: d94b dd3d 5399 b8bd 47a7 c73d 061c 9cbd
00000190: e690 573c 749a 55bc fb0f df3d 5a7f c9bd
000001a0: d840 b73d 4095 aebc db73 aebb 7cf1 87bc
000001b0: 75f4 08be a4d7 b9bc 96ab 30ba 0246 3cbc
000001c0: 4ec4 06bd e2af e0ba b65a 2dbd d644 83bc
000001d0: cbe3 b1bd 0848 aebc cda5 793d be67 e33c
000001e0: 8da2 ebbc e108 b43c 2f31 063d b448 c9bc
000001f0: 9552 49bd a1ba 193e 681a dcbd 5035 3e3d
00000200: 1c35 f7bc 8de6 723c 2bc8 03be 7ac6 ab3d
00000210: 87c1 dcbb 36ac 013d bccf 77bd 6b5c 40bc
00000220: 930d 91bd 860b b3bb f4d7 59bc b26b acbd
00000230: bbde 8cbd d571 92bc 4515 f4bc 1ac7 80bd
00000240: 2e1d a6bb e8d3 8533 4cc8 a73d 32e6 1fbd
00000250: e71e 64bd 8edc 0ebe e58d 7b3d dbb9 143e
00000260: 9317 573c 379a a53d 7405 de3c 97a9 f23c
00000270: f286 6cbd 86e1 32bd bade 3ebc 4ce0 3ebc
00000280: 2790 78bd 9a9c 6c3d 133e 653c 8038 00bd
00000290: bd80 cbbc 11a3 9b3b 87c6 72bd 48ea 2abd
000002a0: ee47 a6bd d542 a6bb 5a39 463d e780 ea3b
000002b0: 0aa3 643d 9eb9 6cbd 4959 dcbd cd20 93bc
000002c0: 1113 b9bd 7927 3d3d 7584 93bc b44b cc3d
000002d0: 6976 363c 51ee 39bc 65ee b9bc 77fd f5bb
000002e0: a37d 2bbc 66b4 e0ba b1ee 853d 7627 c93c
000002f0: d202 81bd add8 bc3d 6cc1 b9bc 5573 2fbd
00000300: a121 723d 723f cdbb 4228 7abd c4d4 babc
00000310: 830b 083a 320d a53d 70d7 d1b9 0aa5 c2bb
00000320: 680a 133a e1fc 023c 6eda 27bc 5b12 3abd
00000330: f539 a83c 0030 8a3e 05d0 203b 6728 c1bd
00000340: 6fea f3bd 7f2f 7cbc fcb1 cb3c 2c34 1e3e
00000350: 565a a0bd 6740 46bd 6850 8e3d b06b 463d
00000360: 539f 46bc cdab 88bd 5d0f b4bd b63b 2c3d
00000370: c491 803c b603 a53c aa18 b73c 3728 71bc
00000380: e0a9 2f3d 3197 00be f0c3 b73d 5e75 a3bb
00000390: 60ce f53d 8c29 003c ab3c 2ebd c619 8d3b
000003a0: 7fff 523d 0ba9 d53d b2b8 0f3e 3600 24bd
000003b0: 4b44 0c3d cfab 363d e46d f33c 2d0d a4bc
000003c0: 1778 61bc b175 d63b 9992 28bd 3ae5 68bc
000003d0: 8506 553d 788b b83c d9f5 b7bc 4d7d a73d
000003e0: 5e51 65bd 081e 97bd 5a97 6bbd b6a2 9fbd
000003f0: 9645 393c 22d1 023d c6da 70bc 0536 663d

conv2.bias f4 [7]
-0.28749096 0.037121505 0.08610916 -0.177601 -0.31140316 0.7319337 -0.22088225
00000000: 0432 93be b80c 183d 005a b03d 09dd 35be
00000010: 3c70 9fbe 0260 3b3f f52e 62be

conv2.lin.weight f4 [7, 16]
1.1221739 -1.4460225 -0.58354324 -0.6122527 -1.3382523 0.79503465 0.721474 -1.4520999
1.2133963 0.82055056 0.27724534 -0.9615117 1.0642631 0.6775088 -1.0105509 0.89479995
-0.78271776 0.91138697 1.3044444 -0.6097423 -0.98706055 -0.93369335 -0.8622599 1.041828
1.2788167 -1.0959003 0.61322445 -0.8045556 -0.93720925 0.8945696 -0.8813733 -0.13679594
-0.582845 -0.91385174 1.2003267 -0.30428573 0.6934476 0.9343073 -0.72182685 -0.9147613
-0.7673042 -1.0098532 -1.036504 1.160555 -0.6932446 0.9511151 1.0652307 0.7999064
-1.2342479 0.502786 -0.37872365 1.2934986 -1.0027256 -0.68988144 1.1192775 0.84033036
-1.1905668 0.65784955 -1.2419633 -0.72748744 0.9733503 0.84522855 1.1412138 -1.0943828
0.81125844 0.7174419 -0.69194746 1.2291873 0.52425796 1.0157441 -1.0686201 0.57599145
0.90506697 0.66466695 -1.1122235 0.97895545 -1.0362805 -1.2800007 -0.90651196 -1.071329
1.0217983 0.8599876 -0.6277123 -0.82884604 1.0059496 -1.0326834 -1.0314845 -1.1039985
-0.6796972 -1.1612557 0.9619347 -0.8366049 1.1363895 -1.2158321 0.984462 -0.9083859
-0.8573737 -0.9923131 -0.6565623 -0.80377454 0.88266426 -1.0734257 1.2117327 0.8541954
-0.92417353 0.87532526 0.876537 0.96934366 -0.86031777 -1.2599735 -0.75800276 1.0951445
00000000: 65a3 8f3f 4417 b9bf 1763 15bf 98bc 1cbf
00000010: da4b abbf 6487 4b3f 85b2 383f 69de b9bf
00000020: 9250 9b3f 9a0f 523f 1af3 8d3e a125 76bf
00000030: c639 883f 3771 2d3f bb59 81bf 9c11 653f
00000040: 3160 48bf a850 693f 09f8 a63f 1218 1cbf
00000050: 00b0 7cbf 8706 6fbf 11bd 5cbf 9f5a 853f
00000060: 44b0 a33f 7646 8cbf 47fc 1c3f 5bf7 4dbf
00000070: f2ec 6fbf 8302 653f aea1 61bf 3c14 0cbe
00000080: 5435 15bf 30f2 69bf 4ea4 993f 57cb 9bbe
00000090: c885 313f c32e 6f3f a5c9 38bf cc2d 6abf
000000a0: 0c6e 44bf df42 81bf 2aac 84bf 118d 943f
000000b0: 7a78 31bf 477c 733f 7b59 883f aac6 4c3f
000000c0: d6fb 9dbf 95b6 003f 11e8 c1be 5d91 a53f
000000d0: 5059 80bf 129c 30bf 7c44 8f3f e41f 573f
000000e0: 7e64 98bf d468 283f a7f8 9ebf 9e3c 3abf
000000f0: 7c2d 793f e660 583f 4b13 923f bc14 8cbf
00000100: a2ae 4f3f 46aa 373f 7823 31bf 0256 9d3f
00000110: c535 063f e703 823f 8bc8 88bf 2d74 133f
00000120: 78b2 673f 9d27 2a3f 575d 8ebf d39c 7a3f
00000130: d7a4 84bf 10d7 a3bf 2b11 68bf 4f21 89bf
00000140: 49ca 823f 2628 5c3f c1b1 20bf 412f 54bf
00000150: f5c2 803f f82e 84bf af07 84bf d34f 8dbf
00000160: a300 2ebf 07a4 94bf 5a41 763f bd2b 56bf
00000170: 3675 913f 63a0 9bbf b405 7c3f fa8b 68bf
00000180: d87c 5bbf 3b08 7ebf 7814 28bf 2bc4 4dbf
00000190: 49f6 613f 0366 89bf 0f1a 9b3f 8dac 5a3f
000001a0: a396 6cbf 5115 603f bb64 603f e826 783f
000001b0: c93d 5cbf d046 a1bf 780c 42bf b22d 8c3f
